…
"F:\Final Year Project\SLR_reference_project\venv\Scripts\python.exe" "F:\Final Year Project\SLR_reference_project\Code\cnn_model_train.py" 
(400, 2)
F:\Final Year Project\SLR_reference_project\venv\lib\site-packages\keras\optimizers\optimizer_v2\gradient_descent.py:114: UserWarning: The `lr` argument is deprecated, use `learning_rate` instead.
  super().__init__(name, **kwargs)
Model: "sequential"
_________________________________________________________________
 Layer (type)                Output Shape              Param #   
=================================================================
 conv2d (Conv2D)             (None, 49, 49, 16)        80        
                                                                 
 max_pooling2d (MaxPooling2D  (None, 25, 25, 16)       0         
 )                                                               
                                                                 
 conv2d_1 (Conv2D)           (None, 23, 23, 32)        4640      
                                                                 
 max_pooling2d_1 (MaxPooling  (None, 8, 8, 32)         0         
 2D)                                                             
                                                                 
 conv2d_2 (Conv2D)           (None, 4, 4, 64)          51264     
                                                                 
 max_pooling2d_2 (MaxPooling  (None, 1, 1, 64)         0         
 2D)                                                             
                                                                 
 flatten (Flatten)           (None, 64)                0         
                                                                 
 dense (Dense)               (None, 128)               8320      
                                                                 
 dropout (Dropout)           (None, 128)               0         
                                                                 
 dense_1 (Dense)             (None, 2)                 258       
                                                                 
=================================================================
Total params: 64,562
Trainable params: 64,562
Non-trainable params: 0
_________________________________________________________________
Epoch 1/15
8/8 [==============================] - ETA: 0s - loss: 138847.9844 - accuracy: 0.5073
Epoch 1: val_accuracy improved from -inf to 0.53250, saving model to cnn_model_keras2.h5
…
"F:\Final Year Project\SLR_reference_project\venv\Scripts\python.exe" "F:\Final Year Project\SLR_reference_project\Code\cnn_model_train.py" 
(600, 3)
F:\Final Year Project\SLR_reference_project\venv\lib\site-packages\keras\optimizers\optimizer_v2\gradient_descent.py:114: UserWarning: The `lr` argument is deprecated, use `learning_rate` instead.
  super().__init__(name, **kwargs)
Model: "sequential"
_________________________________________________________________
 Layer (type)                Output Shape              Param #   
=================================================================
 conv2d (Conv2D)             (None, 49, 49, 16)        80        
                                                                 
 max_pooling2d (MaxPooling2D  (None, 25, 25, 16)       0         
 )                                                               
                                                                 
 conv2d_1 (Conv2D)           (None, 23, 23, 32)        4640      
                                                                 
 max_pooling2d_1 (MaxPooling  (None, 8, 8, 32)         0         
 2D)                                                             
                                                                 
 conv2d_2 (Conv2D)           (None, 4, 4, 64)          51264     
                                                                 
 max_pooling2d_2 (MaxPooling  (None, 1, 1, 64)         0         
 2D)                                                             
                                                                 
 flatten (Flatten)           (None, 64)                0         
                                                                 
 dense (Dense)               (None, 128)               8320      
                                                                 
 dropout (Dropout)           (None, 128)               0         
                                                                 
 dense_1 (Dense)             (None, 3)                 387       
                                                                 
=================================================================
Total params: 64,691
Trainable params: 64,691
Non-trainable params: 0
_________________________________________________________________
Epoch 1/20
12/12 [==============================] - ETA: 0s - loss: 18.6917 - accuracy: 0.3743
Epoch 1: val_accuracy improved from -inf to 0.46833, saving model to cnn_model_keras2.h5
…
